…
        "\n",
        "if __name__ == '__main__':\n",
        "    gan = GAN()\n",
        "    gan.train(epochs=10001, batch_size=32, sample_interval=1000)\n"
      ],
      "execution_count": 7,
      "outputs": [
        {
          "output_type": "stream",
          "text": [
            "Model: \"sequential_9\"\n",
            "_________________________________________________________________\n",
            "Layer (type)                 Output Shape              Param #   \n",
            "=================================================================\n",
            "flatten_5 (Flatten)          (None, 784)               0         \n",
            "_________________________________________________________________\n",
            "dense_29 (Dense)             (None, 512)               401920    \n",
            "_________________________________________________________________\n",
            "leaky_re_lu_21 (LeakyReLU)   (None, 512)               0         \n",
            "_________________________________________________________________\n",
            "dense_30 (Dense)             (None, 256)               131328    \n",
            "_________________________________________________________________\n",
            "leaky_re_lu_22 (LeakyReLU)   (None, 256)               0         \n",
            "_________________________________________________________________\n",
            "dense_31 (Dense)             (None, 1)                 257       \n",
            "=================================================================\n",
            "Total params: 533,505\n",
            "Trainable params: 533,505\n",
            "Non-trainable params: 0\n",
            "_________________________________________________________________\n",
            "Model: \"sequential_10\"\n",
            "_________________________________________________________________\n",
            "Layer (type)                 Output Shape              Param #   \n",
            "=================================================================\n",
            "dense_32 (Dense)             (None, 256)               25856     \n",
            "_________________________________________________________________\n",
            "leaky_re_lu_23 (LeakyReLU)   (None, 256)               0         \n",
            "_________________________________________________________________\n",
            "batch_normalization_13 (Batc (None, 256)               1024      \n",
            "_________________________________________________________________\n",
            "dense_33 (Dense)             (None, 512)               131584    \n",
            "_________________________________________________________________\n",
            "leaky_re_lu_24 (LeakyReLU)   (None, 512)               0         \n",
            "_________________________________________________________________\n",
            "batch_normalization_14 (Batc (None, 512)               2048      \n",
            "_________________________________________________________________\n",
            "dense_34 (Dense)             (None, 1024)              525312    \n",
            "_________________________________________________________________\n",
            "leaky_re_lu_25 (LeakyReLU)   (None, 1024)              0         \n",
            "_________________________________________________________________\n",
            "batch_normalization_15 (Batc (None, 1024)              4096      \n",
            "_________________________________________________________________\n",
            "dense_35 (Dense)             (None, 784)               803600    \n",
            "_________________________________________________________________\n",
            "reshape_5 (Reshape)          (None, 28, 28, 1)         0         \n",
            "=================================================================\n",
            "Total params: 1,493,520\n",
            "Trainable params: 1,489,936\n",
            "Non-trainable params: 3,584\n",
            "_________________________________________________________________\n"
          ],
          "name": "stdout"
        },
        {
          "output_type": "stream",
…
