…
        "\n",
        "if __name__ == '__main__':\n",
        "    gan = GAN()\n",
        "    gan.train(epochs=10001, batch_size=32, sample_interval=1000)\n"
      ],
      "execution_count": 4,
      "outputs": [
        {
          "output_type": "stream",
          "text": [
            "Model: \"sequential_5\"\n",
            "_________________________________________________________________\n",
            "Layer (type)                 Output Shape              Param #   \n",
            "=================================================================\n",
            "flatten_3 (Flatten)          (None, 784)               0         \n",
            "_________________________________________________________________\n",
            "dense_15 (Dense)             (None, 512)               401920    \n",
            "_________________________________________________________________\n",
            "leaky_re_lu_11 (LeakyReLU)   (None, 512)               0         \n",
            "_________________________________________________________________\n",
            "dense_16 (Dense)             (None, 256)               131328    \n",
            "_________________________________________________________________\n",
            "leaky_re_lu_12 (LeakyReLU)   (None, 256)               0         \n",
            "_________________________________________________________________\n",
            "dense_17 (Dense)             (None, 1)                 257       \n",
            "=================================================================\n",
            "Total params: 533,505\n",
            "Trainable params: 533,505\n",
            "Non-trainable params: 0\n",
            "_________________________________________________________________\n",
            "Model: \"sequential_6\"\n",
            "_________________________________________________________________\n",
            "Layer (type)                 Output Shape              Param #   \n",
            "=================================================================\n",
            "dense_18 (Dense)             (None, 256)               25856     \n",
            "_________________________________________________________________\n",
            "leaky_re_lu_13 (LeakyReLU)   (None, 256)               0         \n",
            "_________________________________________________________________\n",
            "batch_normalization_7 (Batch (None, 256)               1024      \n",
            "_________________________________________________________________\n",
            "dense_19 (Dense)             (None, 512)               131584    \n",
            "_________________________________________________________________\n",
            "leaky_re_lu_14 (LeakyReLU)   (None, 512)               0         \n",
            "_________________________________________________________________\n",
            "batch_normalization_8 (Batch (None, 512)               2048      \n",
            "_________________________________________________________________\n",
            "dense_20 (Dense)             (None, 1024)              525312    \n",
            "_________________________________________________________________\n",
            "leaky_re_lu_15 (LeakyReLU)   (None, 1024)              0         \n",
            "_________________________________________________________________\n",
            "batch_normalization_9 (Batch (None, 1024)              4096      \n",
            "_________________________________________________________________\n",
            "dense_21 (Dense)             (None, 784)               803600    \n",
            "_________________________________________________________________\n",
            "reshape_3 (Reshape)          (None, 28, 28, 1)         0         \n",
            "=================================================================\n",
            "Total params: 1,493,520\n",
            "Trainable params: 1,489,936\n",
            "Non-trainable params: 3,584\n",
            "_________________________________________________________________\n"
          ],
          "name": "stdout"
        },
        {
          "output_type": "stream",
…
